ddo-flood/models/lstm_model.pt (torch, 99174 bytes, 5 tensors)

lstm.weight_ih_l0 f4 [256, 28]
00000000: e0f8 e33d 3d14 8d3d bcd4 f83d 7a15 65bc
00000010: c15c bcbd 535a c2bd 6d97 723d bc71 bfbd
00000020: f19e f6bd 076b f73d 1fcd c7bc efce 73bd
00000030: 070c cb3d d75e 983c 8b70 d73d 7db8 d23c
00000040: 9155 c1bd 18c1 3fbd 4235 633d ec5a 74bd
00000050: ff98 fbbb 1d69 7bbc 7c0e 57bd 4d7a d23d
00000060: 20a2 e3b8 377c c4bc 752f 023e 21ff 45bc
00000070: 4927 503d aa1d a9bd 7bb3 563d 495c 853d
00000080: 984c 95bd 8949 5dbd 427d 80bd 78c7 603b
00000090: b0d0 d63c f62f 08be 9a4b 16bd 1fe3 bd3d
000000a0: f64f 00be 626c 6dbc 37d2 89bd 3e66 dc3d
000000b0: 3d3c d53d 86fb 093e 5469 05be a5d2 043e
000000c0: 3073 59bc 91fc 823b e2d8 d2bd 6a30 7abc
000000d0: 8a19 4ebd 32b9 a03c e7c1 423d 78e2 d53d
000000e0: 72ed 283d 26cf 9d3d 9227 ff3d 8d4d c6bd
000000f0: fcd2 07bd 28af 72bd f697 903d 9bd3 863d
00000100: 93ca ddbd b3cd 2ebd 797f bdbc 8940 a2bd
00000110: 50f1 c1bc 088b bbbc aaaa f7bd 0a55 22bc
00000120: c224 98bd 3a6a 8e3d f559 583d fe19 a3bd
00000130: f1d3 6a3c 5ae6 103d 9cbc ecbd 2a16 b03d
00000140: 48cb 19bd ef81 3ebd 4729 cd3d 168f 3e3d
00000150: 1a42 80bd a0a3 b73d e4b7 2c3b 396a 98bd
00000160: dda0 d73d 498c 613d 5421 95bd a0fe 0bbd
00000170: 5a0d 33bd 8f6f b1bd f8ff e53d 128c 253c
00000180: 7c32 edbd 2dde 92bd 11ca f3bc e157 bcbd
00000190: 97a8 88bd dfa3 dcbc 81fc 81bd 2d28 e0bb
000001a0: 1af3 92bd b0b5 6e3c fa07 fe3c d91f 6b3d
000001b0: 8dbd 8b3c 8616 6ebd eb51 aa3d 5852 06be
000001c0: f998 b6bd a047 cc3d f0f8 643d 50dc f1bd
000001d0: d45b 623d 3cae a8bd 2a3a ca3d 4d2c 993a
000001e0: 32f5 e53d 4589 d6bd 5ae2 2b3d 290a 833d
000001f0: c6ef 673d 8b32 143d 97cb 80bd 7fc0 f1bd
00000200: b868 b53d 27e3 7dbd c96c 1cbc ebc5 e1bc
00000210: 6af5 973c e98f 9dbd c5f5 3cbd 7374 97bd
00000220: a022 ca3b e9d6 fbbc 3376 a9bd f778 00be
00000230: 78dd bb3d f066 2f3d 0900 063d 0917 91bb
00000240: fad3 45bd 37fb 553d 0b90 ff3d f8bb 09bd
00000250: 0142 a8bd 6ec7 873b a0a3 08bd 7806 de3c
00000260: f347 083d ed0a 6bbc 23f5 063e 9b7f 72bb
00000270: 6d90 b03c fd50 54bd 41d1 983d 1c68 eebc
00000280: 4fc5 823d 8179 c5bd 337c 433d 4e53 04be
00000290: 18dd a53c 66d6 8abd f17b e1bd 8c96 6c3d
000002a0: bc49 d93d ead3 933c c0c7 353d 9247 7c3c
000002b0: 1437 343d 8c41 2c3d 9c4b 6c3c b5b2 933c
000002c0: 64c1 313d 660f bfbd 612e 2ebd b0ec ab38
000002d0: 8dee 033d 8c87 e63d ccf9 0a3d 9cc9 f33c
000002e0: cec6 d73d 0410 5bbd eee4 2a3c 0d85 82bd
000002f0: e9fe 5abc d221 cabd 26d7 09bd 1d97 e83c
00000300: 51d1 d4bd 1cc2 9bbd 062a 713c 9e2e c1bd
00000310: 3dd7 243c e933 d93c 8c6f 0b3d e314 69bb
00000320: 6e9b d0bc 9859 343d 97e1 c23d 8861 94bd
00000330: 028d 5dbc 9ce5 d7bd 29d3 ec3d e22a ccba
00000340: 7257 bb3c f2a5 b5bd fdfd f23c 7a06 dc3c
00000350: ad25 febc 44eb 03bc f231 93bd 37e8 923d
00000360: 52ae 93bd 1e9f 003e ce8b a2bc 3691 e43d
00000370: 4bb4 c8bc 7bee c8bc cc88 50bd 84a4 f73c
00000380: bad9 fdbc 162c e93d 48f5 973d cc9b 38bd
00000390: ac15 a9bd 5bd5 c83d 3061 60bd 2b41 c73d
000003a0: 423f 68bd 8bf5 5b3d 21a3 f73d 3dca 4abd
000003b0: ba0c d3bc 0a8e d6bd ecd6 a23c 07ef 43bd
000003c0: 1c5b 8c3d 712c 1cbd c5f3 df3d eba3 593d
000003d0: bf31 47ba acb5 023d cfbc 88bd ceea 23bb
000003e0: 1dc6 8dbc 670b 8e3d 75ff a43c d388 4bbd
000003f0: a8dc e1bd fe4e fdbd 39c3 1d3d f515 cfbd
0.111314535 0.06888626 0.12149951 -0.013982171 -0.09197379 -0.09489884 0.059226442 -0.09347865
-0.120420344 0.12080961 -0.024389802 -0.05952352 0.099144034 0.01859991 0.10519513 0.025722736
-0.094401486 -0.046815008 0.055470712 -0.059657022 -0.0076781507 -0.015344885 -0.052504048 0.10277233
-0.000108544016 -0.023985012 0.12713416 -0.012084753 0.050818715 -0.08257611 0.05241726 0.065117426
-0.0729 -0.054025207 -0.06273891 0.003429858 0.026222557 -0.13299546 -0.036693193 0.092718355
-0.12530503 -0.0144911725 -0.067295484 0.10761689 0.1041188 0.13474855 -0.1302846 0.1297098
-0.013272092 0.0039973934 -0.10295273 -0.015270332 -0.050317325 0.019619558 0.0475482 0.10443586
0.04124207 0.07705526 0.12458719 -0.096827604 -0.033160195 -0.059249073 0.07060234 0.06583329
-0.108296536 -0.04267664 -0.023132073 -0.07922465 -0.023674637 -0.022893444 -0.120930985 -0.00990797
-0.07428886 0.06953855 0.052820165 -0.07963942 0.014332757 0.03537593 -0.11559412 0.085979775
-0.03754738 -0.046510633 0.10017639 0.046523176 -0.06262608 0.08966756 0.0026354725 -0.07442135
0.10528729 0.055065427 -0.072817475 -0.034178376 -0.043713905 -0.08663856 0.11230463 0.010104196
-0.11581895 -0.07171283 -0.029759439 -0.09196449 -0.06672781 -0.026933609 -0.063469894 -0.006840727
-0.07175274 0.014569685 0.031009663 0.05740342 0.017058158 -0.05812695 0.08316406 -0.13117349
-0.08915896 0.09974599 0.055901468 -0.118095994 0.055263355 -0.082363576 0.09874375 0.0011686176
0.11228408 -0.10475401 0.041963913 0.06398422 0.05662515 0.036181014 -0.06288832 -0.11804294
0.08857864 -0.061984207 -0.009547421 -0.027560195 0.01854964 -0.07693464 -0.04613282 -0.07395258
0.0061686784 -0.030742126 -0.08274498 -0.12546144 0.09173101 0.04282278 0.032714877 -0.004427795
-0.04829786 0.05224153 0.12478646 -0.033626527 -0.08215714 0.004143647 -0.03335917 0.027102694
0.03327174 -0.014345867 0.1317945 -0.0037002328 0.021553243 -0.05183505 0.07461787 -0.029102378
0.0638529 -0.09642316 0.047725867 -0.12922403 0.020247027 -0.067791745 -0.11009968 0.05776076
0.10609767 0.018045384 0.04437995 0.015397923 0.04399784 0.042054698 0.014422324 0.01802955
0.043397322 -0.09329109 -0.0425247 8.198002e-05 0.03220992 0.11256322 0.03392963 0.02975922
0.10535966 -0.05348207 0.010430558 -0.06373034 -0.013366439 -0.09869732 -0.033652447 0.028392369
-0.103914864 -0.07605383 0.014719492 -0.0943272 0.010061082 0.02651401 0.034041926 -0.0035565428
-0.02546474 0.044030756 0.09515684 -0.07245165 -0.013522388 -0.105418414 0.11563713 -0.0015576745
0.022868846 -0.08869542 0.029662127 0.026858557 -0.031023825 -0.008051697 -0.07187261 0.07173198
-0.07210983 0.12560698 -0.019842055 0.11160509 -0.024500033 -0.024527779 -0.05091171 0.030229814
-0.03098761 0.11385362 0.074198306 -0.045070454 -0.08256087 0.09806319 -0.054780185 0.09729227
-0.056700952 0.053700965 0.12091661 -0.049509276 -0.025762904 -0.104763106 0.019877873 -0.047835376
0.06853315 -0.03812832 0.10935167 0.05313484 -0.00075986603 0.031911537 -0.066766374 -0.002501178
-0.017306382 0.069357686 0.020141343 -0.049691033 -0.11028415 -0.12368582 0.038516257 -0.1011161

lstm.weight_hh_l0 f4 [256, 64]
00000000: 6a71 e1bd 16f3 aabd aebe acbd da7f eebd
00000010: 72b0 a03d 22f4 b43d 50b0 c4bc 34b1 bf3d
00000020: e492 edbd 7cea a4bd 5012 c53c 98f6 a4bc
00000030: 688c c7bd 30d9 b13c 4890 0bbd a856 f23d
00000040: dc69 aabd c0f0 f33d ac7a 6fbd d8e9 c4bc
00000050: a4ee f93d 08b1 5cbd 8e3a d63d e6e1 9e3d
00000060: 0446 853d 408b c2bc c029 813c 20e7 873d
00000070: 340e 3cbd 2219 a23d 78aa 9f3d 0c16 aa3d
00000080: 2a9f dcbd e2c9 ac3d e4f1 3ebd 507c e0bc
00000090: ba6b d03d aa1a f43d f84f b43d 9475 bebd
000000a0: 522f a5bd facb c53d dccf 583d 806f 663b
000000b0: 6ec5 913d 5cea fe3d 5418 ccbd ee20 e6bd
000000c0: 202b ab3c a844 e53d 3296 8b3d 708d 71bc
000000d0: d071 093d 002c 313d 70e9 b33d dac7 a6bd
000000e0: f0ae 68bd ae0f c23d 94f4 bfbd 008e 41ba
000000f0: d433 73bd ee82 f6bd 584d fd3d 5c36 8abd
00000100: 60df 90bd 9a07 f2bd a8c8 49bd 80fb b2bb
00000110: 005f 1bba 9a8f 94bd 8a9d f63d a00a d4bb
00000120: 0afd a03d d082 12bc 00d5 6cbd 3cb4 223d
00000130: 20a9 c83c 4299 88bd 028b e2bd a8d6 863d
00000140: c0f9 30bb a8a0 e3bd d8a0 73bd 3c65 e73d
00000150: 90f7 67bd 04f3 febd f25e cf3d 0432 fbbd
00000160: b0c8 183c 0405 3abd 6c8a 29bd 767f f0bd
00000170: a882 d33d 10de 693d 9e8c c5bd 001a 5ebb
00000180: 6ed2 a8bd 84e2 f63d 801b 92ba 0083 753b
00000190: 78c2 f73d d850 dc3c 643e 303d 6010 833b
000001a0: 2a85 aa3d 806a 0d3d f0e8 12bc 2840 54bd
000001b0: f886 34bd 0004 d6bb f2c1 a0bd 888d 86bd
000001c0: 0002 853c 665c 923d a06e ac3c 48d0 d03c
000001d0: a466 923d 38a1 eabc 4899 be3d 0058 a93c
000001e0: e8d2 853d 003c 4639 00bc 8839 e202 d23d
000001f0: 9c51 013d 50f4 953c e025 c93c e8cb d23d
00000200: 0682 fd3d 201a c53d c255 ad3d 00e9 fdbb
00000210: c0e2 4fbd 282a 1cbd f49d 013d 8017 9bba
00000220: 601e ac3d 981e dabc 6c60 bcbd 7084 5d3d
00000230: b833 3cbd c08c 63bd 5c72 d5bd dc35 2e3d
00000240: 1c02 6ebd 9e9a cdbd 883a 4c3d 601a 253d
00000250: a488 3b3d 28c8 f23d 281e ec3c f47b fbbd
00000260: 10aa fbbc c0fa 75bd a409 3f3d faa1 9c3d
00000270: 8023 f4bc ce2e 9cbd 60b1 fabd a07d 7d3c
00000280: e4c8 6fbd a8d5 ccbd 2051 a33d 0852 dc3d
00000290: f81e c53d 8a37 ed3d d8f6 f03d 8072 ffbb
000002a0: aeaf bb3d b8d3 963d 3080 f9bd a6ad b73d
000002b0: 88fa bcbd d639 a93d b081 ec3c 4082 3fbc
000002c0: 4c32 333d d235 fb3d a054 b6bd b0b5 8abd
000002d0: 70aa d9bd 585a b6bd 5c94 2abd 8c2d bebd
000002e0: f400 073d 0e22 b3bd 46d1 ae3d 4498 c9bd
000002f0: feaa a7bd a677 d9bd 54fd c53d bc66 19bd
00000300: ac8d e03d c820 a4bd 9840 70bd c8e8 f9bc
00000310: bc73 0e3d 6acb c63d 207d ddbd 5a68 b03d
00000320: 00dc 533a c260 f4bd b809 d73d c039 033b
00000330: 161f d03d 70b1 a73c 9a59 ebbd 06fa fcbd
00000340: 8033 6dbb 4ce1 8f3d c873 b6bd d447 7dbd
00000350: c29d 943d 582f 4c3d 06fc acbd 5e78 e33d
00000360: 4eb7 c4bd e0d8 46bd c055 0d3b 8043 073d
00000370: 946f df3d bc77 7b3d 4048 313c 5e22 aabd
00000380: 74e7 e93d e0e7 423c 7638 debd 6c74 5c3d
00000390: 40ce fdbb 045e d33d ac83 0c3d 52e6 e2bd
000003a0: f071 a1bc 90ff 76bd b846 d83c 14b2 44bd
000003b0: 983f fabd 70af 7b3d 6cf4 55bd 304c 863d
000003c0: 96af dd3d 8a81 fabd 40d8 7b3c 50d0 25bc
000003d0: 800e 033b 2649 ef3d 0c49 a23d a4a7 ee3d
000003e0: 00eb b83b 7ec0 99bd 6041 95bd 5856 9ebd
000003f0: 2081 4a3c 60f4 27bc 9436 28bd a003 cebd
-0.1100796 -0.08347146 -0.08434807 -0.116454795 0.07846154 0.08835627 -0.024009854 0.09359971
-0.11600283 -0.08052537 0.024056584 -0.020137116 -0.09743577 0.021710008 -0.034073144 0.118329346
-0.08320972 0.11911154 -0.0584666 -0.024037287 0.1220372 -0.053879768 0.10460387 0.077579305
0.06507495 -0.02374804 0.015766978 0.066358805 -0.045911983 0.0791495 0.07796186 0.08304986
-0.10772546 0.084369436 -0.046617404 -0.027403027 0.10176797 0.11919148 0.08804315 -0.0929977
-0.08065666 0.09658046 0.052932605 0.0035161674 0.07117735 0.12447044 -0.09965578 -0.112367496
0.020894587 0.11194736 0.06815757 -0.014743194 0.033555806 0.043254852 0.08784759 -0.081435874
-0.05680746 0.09475647 -0.093728215 -0.00073835254 -0.0593756 -0.120366916 0.12368268 -0.067486495
-0.070738554 -0.11817856 -0.049263626 -0.00546211 -0.0005926937 -0.07253952 0.12041767 -0.006470993
0.07860763 -0.008942321 -0.05782032 0.039722666 0.024494708 -0.066698566 -0.1106167 0.06583911
-0.0027004331 -0.11114627 -0.059479564 0.11298606 -0.05663258 -0.12448695 0.10125531 -0.12265399
0.009325191 -0.04541494 -0.041391775 -0.11743061 0.10327655 0.05709654 -0.09645961 -0.003389001
-0.08243261 0.12054923 -0.0011147112 0.0037462115 0.12097639 0.026894018 0.04302825 0.003999755
0.0832618 0.034525394 -0.008966669 -0.051818997 -0.04407403 -0.0065312386 -0.07849492 -0.06569964
0.016236305 0.0714653 0.021048844 0.025489941 0.071484834 -0.028641328 0.0930658 0.020671844
0.06534368 0.00018905103 0.00026080012 0.10254456 0.03157197 0.018304974 0.024554193 0.10292798
0.12378316 0.096241236 0.08463623 -0.007748723 -0.050753355 -0.03812614 0.031644776 -0.0011832565
0.08404231 -0.026625916 -0.091980785 0.05408138 -0.04594776 -0.05555415 -0.10422203 0.042531833
-0.05810748 -0.100392565 0.049860507 0.040308356 0.045784608 0.11854583 0.028822973 -0.122795016
-0.03072074 -0.060053587 0.046640053 0.07648082 -0.029802084 -0.07626115 -0.12240863 0.015471846
-0.058541194 -0.10001689 0.07974458 0.10757834 0.096250474 0.11582859 0.11765832 -0.007795632
0.091643676 0.07364601 -0.12182653 0.08968668 -0.092274725 0.082629845 0.028870434 -0.011688769
0.04374914 0.12266125 -0.0890286 -0.067729354 -0.106282115 -0.089039505 -0.041645393 -0.09286031
0.032959893 -0.0874673 0.085360095 -0.098434955 -0.08186911 -0.10618524 0.09667459 -0.03745149
0.10964522 -0.08014065 -0.05865535 -0.030506507 0.03477834 0.09706767 -0.10814881 0.086136535
0.0008081794 -0.119325176 0.104999006 0.0020023435 0.10162179 0.020470351 -0.114916995 -0.12352376
-0.0036194026 0.07025394 -0.08908802 -0.06183608 0.072566524 0.049849838 -0.08446507 0.111069426
-0.09605275 -0.048546672 0.0021566004 0.033023357 0.10909954 0.061393484 0.010820448 -0.08307336
0.11421099 0.011896104 -0.10850613 0.053821966 -0.007745534 0.103206664 0.03430526 -0.11079086
-0.01970765 -0.060302317 0.026400909 -0.04802139 -0.12219161 0.061446607 -0.052235052 0.065575
0.10824506 -0.12231739 0.015371382 -0.010120466 0.0019997656 0.11683874 0.07924089 0.11653069
0.0056432486 -0.07507418 -0.0728786 -0.077313125 0.012359887 -0.010251135 -0.041067675 -0.10059285

lstm.bias_ih_l0 f4 [256]
00000000: c7d0 05bd bdaa 9f3a 5ff8 70bd 603f d93d
00000010: 29f8 5d3d 287b b43d 6909 b6bd 3ca5 9e3d
00000020: d91b 2fbc 6446 20bb e935 973d cad7 02bd
00000030: 204d 05bc 5e7b 883d ed53 e7bd 24f6 8fbd
00000040: c3c7 753d b4a5 42bd 341c f6bc 2d2b 933d
00000050: 2816 8e3d 2926 13bd bdea adbd 7335 c53d
00000060: de19 0a3d 56a4 1c3d 53bf 9c3d 4af9 5cbd
00000070: 0f4c b2bd 981e 81bc 33e2 e2bd fcea 83bd
00000080: 2e6a b83d 9fa0 9a3d a4f6 a43b d755 e9bd
00000090: 4587 9abd 0de1 11bd a252 653d 0472 bebd
000000a0: 91cf d2bc faf9 61bd 2ed3 ad3d 5da8 c2bd
000000b0: 3325 5bbd c8c3 373d b84d 8b3d 6167 6b3d
000000c0: 78ec b6bd f829 423c a804 b8bd affb c3bd
000000d0: 9696 85bd 4f65 8f3d 1547 b8bd 3350 263c
000000e0: 83d0 6fbd e52e d1bd 892d b53d 5a28 d1bd
000000f0: 591a aebd f19d 8abc 7ce7 19bd 027f d03d
00000100: 56d6 bbbd d282 d43d 48e0 a7bc 441e 38bd
00000110: 5890 f7bc b080 cbbc 5833 f53d c41d 1d3d
00000120: 5816 86bc c205 a1bd 789d f1bc 00a7 ab3a
00000130: 44e9 f8bd 1692 da3d c86a 2f3d 1840 f4bc
00000140: 46b8 9a3d 886f 5d3d 5088 da3d deb2 ee3d
00000150: c872 03bd 7c11 4abd f843 f73d 80f1 8b3a
00000160: bed1 8a3d f408 dcbd 1a9c 943d 1485 4ebd
00000170: 60b3 8cbd b08e 603c 708f 7a3d 88e7 fabc
00000180: 8cda fc3d 702e 5abd c632 f33d 26a0 df3d
00000190: 56d1 8fbd 88fd 56bd bac6 823d a0d1 153c
000001a0: c03e afbc 0897 e23d 983a e7bd 6801 bdbc
000001b0: 92b0 a83d b456 5c3d 30ac f4bd 46fb fcbd
000001c0: 70c7 683c 5c27 343d f29c b6bd c0e9 613d
000001d0: c8d7 e7bc c0c8 1ebd 84d0 b43d 680e b6bc
000001e0: b27f 88bd e02a e7bb 54c5 2f3d c248 c93d
000001f0: dcdb 953d d4e3 15bd 68b8 fcbc d019 59bd
00000200: 03ba dbbd b3b8 bc3d a743 88bd e5b9 9b3d
00000210: fd9f 15bd 9b2b ebbd e088 1c3d 42d3 04bc
00000220: 14db ffbd f94b 70bc 2f2c b1bd 6b71 debc
00000230: 334d e03c a43e b8bd 4c48 a13d 5120 01be
00000240: ca91 a3bd 2423 cdbd 41bc db3d d3cf 70bb
00000250: 58de 8b3d aa3b e9bd d5e1 aa3b 4b06 75bd
00000260: d8cb 3dbd 6e1d e5bc 6a2e f13d 98a2 8e3c
00000270: ba0e 13bd 9779 a8bd b070 68bd 7519 403d
00000280: 8ba8 cf3c 3cbe 36bd bac4 b83c 4a10 e8bd
00000290: e61f 8e3d 46e8 033d efc8 b5bc 9223 853d
000002a0: 2062 0c3b 9721 d03d 465c 9f3d ed35 c43d
000002b0: 675b d4bd 45d7 99bd f2fd cbbd c934 8cbb
000002c0: eb41 853d 1fae 7d3d 7fb1 ccbd 5fb6 343d
000002d0: e06a 883c cbd3 d8bd f112 283b e421 acbd
000002e0: 7e3d e33d 543b 88bc 1375 dbbd 94ad 32bd
000002f0: 0132 9ebc d2ba e1bd f874 083e 0a6a a83d
00000300: d848 39bd 12f8 16bd 9e94 85bc 22de 85bc
00000310: 70f0 0cbc 5252 c03d f3b5 61bd 12e1 c83d
00000320: b6dd 70bd fdd2 ebbb 65a9 66bc f4d3 f3bc
00000330: fc2a b63c fa5b 053e c004 2ebd 0c70 123d
00000340: 0a49 373a a41e 00be 9702 693c 9277 383d
00000350: 2634 a13c 7c85 13bd 4f73 c03c 2074 83bc
00000360: 038b bd3d 1d9a 9f3c eb4a 22bc 1de5 59bb
00000370: b3ef 403d bc1b 9f3d b572 f33b 6d44 d2bd
00000380: ee82 edbd 270e 36bd 2294 b5bd 850d 8a3c
00000390: c6a5 d43d 78c7 773d bf78 5c3d 7281 62bc
000003a0: 5de2 a7bd 414c b83d 3513 2e3d f295 e6bc
000003b0: 6a7a a8bd 682c a83b ac92 b3bc ebd6 1abd
000003c0: 2804 9c3d afcf 13bc 6719 643d 4c8c 08bd
000003d0: 2d32 32bc a465 d4bb bd61 dd3b 8379 9e3d
000003e0: 6938 81bd 5793 4d3d 7f59 c7bd c162 a9bd
000003f0: 0d6a ee3c 81e3 aebd 641f 3abd 9f1e 8b3d
-0.03266981 0.0012181621 -0.058830615 0.10607791 0.054191742 0.08812553 -0.088885136 0.0774636
-0.010687792 -0.0024456019 0.073833294 -0.031944074 -0.008136064 0.066641554 -0.112953044 -0.070293695
0.06000496 -0.047521308 -0.030042745 0.071859695 0.0693782 -0.035925064 -0.084920384 0.09629335
0.033716075 0.03824266 0.0765368 -0.053948678 -0.08705913 -0.015761659 -0.110783 -0.06441304
0.09004627 0.07550167 0.0050342847 -0.11393326 -0.07545332 -0.035615016 0.055987008 -0.092990905
-0.025733741 -0.055170037 0.08487545 -0.09504769 -0.053502273 0.044864446 0.06801933 0.057471637
-0.089318216 0.011850826 -0.08985263 -0.09569489 -0.065228626 0.07001745 -0.08997933 0.010150957
-0.05854846 -0.102140225 0.08846576 -0.102127746 -0.08501119 -0.016921015 -0.037574276 0.10180475
-0.09171741 0.103765145 -0.020492688 -0.04495074 -0.030220196 -0.024841636 0.11972684 0.038358465
-0.016368076 -0.07862426 -0.029494032 0.0013096035 -0.12153867 0.10672395 0.042826444 -0.029815719
0.075546786 0.054061443 0.10670531 0.1165521 -0.032091886 -0.04933308 0.12073511 0.0010676831
0.067782864 -0.10743895 0.072563365 -0.050419882 -0.068701506 0.013705894 0.06117195 -0.03062798
0.12346372 -0.053266943 0.11874919 0.10919218 -0.070223495 -0.05248788 0.0638556 0.009144217
-0.021392226 0.11063963 -0.11290473 -0.02307196 0.08236803 0.053793624 -0.11946905 -0.12352614
0.014207706 0.04398285 -0.08916654 0.055154562 -0.028301135 -0.03876567 0.08828834 -0.022223666
-0.06664981 -0.0070546716 0.042912796 0.098283306 0.073173255 -0.036594227 -0.03084965 -0.053003132
-0.10728838 0.09214916 -0.06653529 0.07603816 -0.03652953 -0.114829265 0.03821647 -0.008107008
-0.12492958 -0.014666551 -0.086510055 -0.027153691 0.027380561 -0.08996323 0.07875118 -0.12609984
-0.079867914 -0.10016468 0.10729266 -0.0036744967 0.06829518 -0.11388333 0.0052149096 -0.059820455
-0.04633698 -0.027968135 0.11776431 0.017411515 -0.035902716 -0.082263164 -0.056748092 0.046899278
0.025348922 -0.044615015 0.022554744 -0.11331232 0.06939678 0.032203935 -0.02219054 0.06500925
0.0021420792 0.10162657 0.07781272 0.09580598 -0.10368996 -0.075117625 -0.099605456 -0.0042787534
0.065067135 0.061933633 -0.09994792 0.044119235 0.016652524 -0.10587271 0.0025646056 -0.084049016
0.11095713 -0.016629852 -0.107156895 -0.04362257 -0.019310953 -0.11021961 0.1332587 0.0822335
-0.045235485 -0.036857672 -0.016306218 -0.016341273 -0.008602247 0.09390701 -0.05510516 0.09808554
-0.05880519 -0.0071967826 -0.014078473 -0.029764153 0.022237293 0.13023368 -0.042485 0.035751387
0.00069917797 -0.12511688 0.014221809 0.045035906 0.019678187 -0.036015972 0.023492483 -0.016046584
0.0925503 0.019482667 -0.009905557 -0.0033248134 0.047103595 0.07768962 0.0074294456 -0.102669574
-0.115972385 -0.04444709 -0.08866145 0.01685215 0.10383181 0.060492963 0.05382609 -0.0138248075
-0.08197472 0.08998919 0.042498786 -0.028147671 -0.08226474 0.0051322468 -0.021920525 -0.037802618
0.0761798 -0.009021684 0.055688288 -0.033336923 -0.010876221 -0.006481843 0.006756036 0.0773802
-0.063095875 0.050189342 -0.09733867 -0.08270789 0.029103303 -0.08539487 -0.045440093 0.0679295

lstm.bias_hh_l0 f4 [256]
00000000: d4a4 eabd d657 26bc b48c e4bc a2db ddbc
00000010: 4d09 ebbd 3cc6 91bd 82ed 73bd 00f7 463c
00000020: e995 9b3d 6949 c0bd d3bd c2bd 44f4 b6bc
00000030: 934d d7bd eecd 8ebc 04d8 6fbd d424 45bd
00000040: f148 4e3d 3cd5 a03d ed9e 82bd b8b7 2fbd
00000050: 8822 6cbb 0a2d 84bd b1ca a6bd 6b4e a6bd
00000060: d7bd edbd 75df 003e de31 b6ba c645 99bd
00000070: 7d4c 033e 0227 a1bb c12a a9bd 62ee d43b
00000080: 1edb a63d 2133 053e a9c4 18bd e984 91bd
00000090: 9d5a 8b3d fb85 b03d 08b6 023c acd2 dbbd
000000a0: 5580 2dbc 5690 ad3d 1c02 273d 4d78 ddbd
000000b0: f041 c33d c4b4 06bb a5ea 9abc f5f2 383d
000000c0: 1885 43bd e19e 9b3d 70b4 afbd d808 543d
000000d0: 2c8c d5bd 2237 043d cfb8 9c3d 02bc ad3c
000000e0: b637 2b3d fddc bbbd 0b6d 1d3c d540 883d
000000f0: 12aa 89bd 6f75 d23c 70e1 733d d073 a3bd
00000100: 2aef ca3d 886b b3bd c4c3 54bd 0ac2 8bbd
00000110: 5840 e4bc b00f e9bd 004c adbd d0fd fdbc
00000120: ce7a aabd 7c2b 503d 185f 943d 2cf3 92bd
00000130: a817 a03c d0aa f1bc 409b 7b3b 68b7 b03c
00000140: 30ed 0dbc 7c94 70bd 4013 dabb 189c 92bd
00000150: 4454 953d 5835 b3bc 20ea 9fbc 3c99 b13d
00000160: 668e e7bd fc51 f43d 1c11 a83d dc2a 243d
00000170: b03b 97bd 2016 de3d 44e3 833d 6ecc ab3d
00000180: b0a7 283d 765e e0bd 6001 803c 3494 8dbd
00000190: 80db 63bb 8a7b cdbd 1e2c fc3d 6c43 0ebd
000001a0: b4c9 10bd d208 9bbd 4ec2 b43d f0c1 e3bd
000001b0: 949a 633d f893 a6bc b48c 7fbd f4f5 5abd
000001c0: 14b2 b83d 2858 163d 0679 db3d 806f cfbd
000001d0: 308b a53d e878 d0bd 883c c33c 26a2 fdbd
000001e0: e426 5dbd 04f3 62bd 34fc 81bd f04b 08bc
000001f0: a020 4ebd 240c 633d bced 92bd 1079 bc3c
00000200: 1615 663b 35ef 933d 76f3 a7b9 6709 9c3d
00000210: 40cc 433d 201e 553d cba1 ebbd 34fe 08be
00000220: 4878 a33d 6262 cfbd 3392 263d 95cf e83c
00000230: c25a b6bd 782d b5bd 7447 afbc f47f a43d
00000240: 7cc3 ea3c 9256 02be 978f dc3c 5fd6 0e3d
00000250: 3c25 a7bd da56 06bd aae8 cabd bcaf ddbc
00000260: 9a56 f6bb 8431 aabb 4628 9bbd 85e4 b53d
00000270: fb23 c33c a2de 093d 781a d8bd df4e ac3d
00000280: 0377 fbbd 5cd8 7bbd d54e 6ebd e287 a3bd
00000290: d601 dbbd dcd6 cc3d fed3 56bd dd49 7c3d
000002a0: 3b14 d7bd b349 5bbd 3f06 93bc 4ff5 db3d
000002b0: 35cf ad3c f539 e5bd a8b1 ccbd 7f3d 073d
000002c0: fd60 b23d bade 043e 7df4 e63d 81a9 18bd
000002d0: b1e7 52bd 9334 623d 9546 d03d eec4 a23d
000002e0: 08cc e73d 676c fc3d bb77 bf3d b43c 98bd
000002f0: e59a 87bd ab93 2f3d 65b9 333d 4f74 0e3d
00000300: f807 77bc 16a0 3d3d 8100 ba3c 99fc a5bd
00000310: e74e cdbd f420 243d fd0d d6bc d0ff d63d
00000320: b594 9f3c b6e6 753d 9a3d 0c3c ca34 e3bd
00000330: 5a41 15ba d4dd bdbc 21f1 e63d a0a9 603d
00000340: 9ca5 103d 9ec1 a1bd 5170 913d 8e23 0e3d
00000350: 7d75 04bd fa0e c8bd 1515 aaba 04e7 dcbd
00000360: cfff 823d aed7 7e3b d777 6bbd 2e97 a7bb
00000370: 522c bebd 68c9 4e3c 2a17 16bd 6c09 46bd
00000380: d61b 073c bbf8 17bd b062 adbd 13a2 a5bc
00000390: fc91 043e 4ce0 cebd b529 acbd 8982 95bc
000003a0: d1f3 eabd fefb 1bbd 8b95 babd 54c0 07be
000003b0: 362a 833c 4acd 82bd e403 d23c 2610 713a
000003c0: 83b3 733d 3fee 1f3d a927 6cbd 87ce ef3c
000003d0: e9da 8b3c c06d b23c bbf2 af3d bead 65bd
000003e0: b193 433c 93d4 4c3d 7175 8abd 534c e4bd
000003f0: 6989 b33d 0746 ab3c 761a 7d3d 7805 943d
-0.1145722 -0.010152778 -0.027899124 -0.027082268 -0.11476383 -0.07117888 -0.059552677 0.01214385
0.075969525 -0.09389002 -0.09508862 -0.022333272 -0.10512843 -0.01743218 -0.058555618 -0.048130825
0.05036253 0.07853171 -0.06377969 -0.042899817 -0.0036031324 -0.06453903 -0.08144129 -0.08120426
-0.11608475 0.12585242 -0.001390036 -0.07484011 0.12822147 -0.00491798 -0.08260108 0.006498144
0.08147262 0.13007785 -0.037296925 -0.07105429 0.068043925 0.08619305 0.00797797 -0.10733542
-0.010589679 0.084747955 0.040773496 -0.10813961 0.09534061 -0.0020554522 -0.018910715 0.045153577
-0.04773435 0.07598663 -0.085793376 0.051766247 -0.10427126 0.03227914 0.07652437 0.021207813
0.041801177 -0.091730095 0.009608517 0.06652991 -0.067218915 0.025690762 0.059541166 -0.07981074
0.09908898 -0.08760744 -0.05194451 -0.068241194 -0.027862713 -0.11379945 -0.084617615 -0.031004816
-0.083242044 0.05082272 0.072447 -0.071752876 0.01954253 -0.029500395 0.0038392097 0.02157183
-0.008662507 -0.058735356 -0.006655127 -0.07158679 0.07291463 -0.021876022 -0.01952082 0.08671805
-0.11306457 0.119297 0.08206388 0.040079936 -0.07384431 0.10844064 0.06439832 0.08388601
0.041175544 -0.10955517 0.015625656 -0.06913033 -0.0034768283 -0.10033329 0.12313102 -0.034732267
-0.03534861 -0.07570042 0.08826123 -0.11120975 0.05556734 -0.020334229 -0.062390044 -0.053457215
0.09018341 0.036705166 0.10716443 -0.10128689 0.080831885 -0.10179311 0.023832574 -0.12384443
-0.053992167 -0.05540754 -0.06346932 -0.008318886 -0.050324082 0.0554315 -0.071742505 0.023006946
0.0035107783 0.072233595 -0.00032034115 0.07618981 0.04780221 0.052030683 -0.11505469 -0.13378221
0.07981926 -0.10126187 0.04066677 0.028419295 -0.089040294 -0.08846563 -0.021396376 0.080322176
0.028657667 -0.12728336 0.026923938 0.03487241 -0.08161399 -0.03279767 -0.099076584 -0.027061336
-0.007517648 -0.005193891 -0.07576041 0.08881477 0.023820868 0.033659585 -0.105519235 0.08413481
-0.12278559 -0.061485633 -0.05818065 -0.07984902 -0.106937096 0.10001919 -0.052448265 0.06159388
-0.105019055 -0.053537082 -0.017947314 0.10740148 0.021216968 -0.11192695 -0.09994823 0.03301763
0.08709905 0.12975588 0.11277101 -0.037271027 -0.05149049 0.05522592 0.101697125 0.079477176
0.11318213 0.123253636 0.09349009 -0.07433453 -0.06621341 0.042865437 0.043877978 0.03477889
-0.0150775835 0.046295248 0.022705318 -0.0810482 -0.10024815 0.04007049 -0.026129717 0.10498011
0.019480089 0.060034476 0.008559609 -0.11094053 -0.0005693637 -0.023177065 0.112764604 0.054849267
0.035314187 -0.07898258 0.07101501 0.034701876 -0.032338608 -0.097684816 -0.0012976254 -0.1078625
0.06396448 0.003888588 -0.057487335 -0.0051144576 -0.09285797 0.012621261 -0.036643185 -0.04834883
0.008246383 -0.037102442 -0.08466089 -0.020218885 0.12946314 -0.10101375 -0.084063925 -0.01825072
-0.114722855 -0.038082115 -0.09110554 -0.13256961 0.016011339 -0.06386812 0.02563662 0.0009195827
0.059497368 0.03904557 -0.05765501 0.029273285 0.017072158 0.021780849 0.08591219 -0.056073897
0.011937068 0.050007414 -0.067606814 -0.1114737 0.08766443 0.020907415 0.061792813 0.072276056

fc.weight f4 [1, 64]
00000000: a3d6 96bd a847 03bd ca59 f6bd f749 28bd
00000010: 17b2 363d 6494 553d a256 c3bd cf02 903d
00000020: e30c 263d 5cf9 89bd a734 e6bd 97c7 0cbd
00000030: 07a7 91bd 99bd b33d d539 debd 7652 783d
00000040: 9d01 9dbd 9435 3b3d ce77 2bbd 1840 5f3c
00000050: a116 56bc 79b0 81bd 77c1 c13d 2a27 f4bc
00000060: 2190 11bd c002 89bd b224 78bc cd55 de3c
00000070: 5350 03be 1ccb 82bd 155b 393d a0a7 203d
00000080: 445d df3b 4db7 af3d 6d2b a43d f088 e03c
00000090: 4681 b73d 4be2 633d b5bd 123d 0e4f 3fbd
000000a0: 03c0 9bbd bfaf e4bd c908 d13d b9ef 7e3d
000000b0: 0baa ba3c a681 92bd 0c86 95bc 1808 b9bd
000000c0: 801c 373d 41b8 64bd 07e0 91bd 7249 40bd
000000d0: 5274 e3bc 7f3d b6bd fa31 c63d 268a 6c3d
000000e0: c8a2 993d 6c3e 67bc f92f 9c3d e0a5 093e
000000f0: 8081 123d 6202 143d de7e 25bd 3c8a 933d
-0.073651575 -0.03205076 -0.12028845 -0.041086163 0.044603433 0.05214347 -0.09538008 0.07031786
0.040539633 -0.06737015 -0.112405114 -0.03437003 -0.07111936 0.08776397 -0.10850874 0.060625516
-0.07666323 0.045705393 -0.0418623 0.013626121 -0.013066919 -0.063324876 0.094607286 -0.029803831
-0.035537843 -0.06689978 -0.015145468 0.027140522 -0.1282361 -0.06386396 0.04525288 0.03922236
0.006816538 0.08579884 0.08016095 0.027409047 0.08960204 0.05563573 0.03582545 -0.04670625
-0.07604983 -0.111663334 0.10206754 0.062240336 0.02278616 -0.07153635 -0.018252395 -0.09034747
0.044704914 -0.05583978 -0.07122808 -0.046945043 -0.027765427 -0.08898448 0.09677501 0.057748936
0.07501751 -0.014114004 0.076263376 0.13442183 0.035768032 0.036135085 -0.040404193 0.072041005
